model.tflite (tflite, 236872 bytes, 8 tensors)

model/conv2d/BiasAdd/ReadVariableOp f4 [16]
00000000: 9769 ea3c f323 8b3d 532c 7ebe cebf 253e
00000010: 0a9f ebbc b002 a6bb b5be 043d 80ea 273d
00000020: 12e8 03bd bc51 01be 0770 373d 411b 2c3d
00000030: 7e39 babd 6013 9ebd 7256 06bd 7208 833c
0.028614802 0.06793966 -0.24821596 0.16186449 -0.02876236 -0.0050662383 0.032408435 0.04099512
-0.03220374 -0.12628835 0.044784572 0.04201818 -0.09092997 -0.07718539 -0.032797284 0.015995238

model/conv2d_1/BiasAdd/ReadVariableOp f4 [32]
00000000: 5330 bf3c b49a 19be 7c56 483c 8a7d 93bd
00000010: d403 b8bc dc51 04be b3a6 00bd 43e0 10be
00000020: 7b5f 163d c653 523d 52e8 adbd 1b19 2abe
00000030: f934 73bd 7a51 823c e420 b5bd 418a 8e3c
00000040: 4fba 0a3d 1e22 a6bd 6006 42bd ff40 05bd
00000050: a130 cebd 1a55 3ebb bb64 27bb 3ece 88bd
00000060: a423 203d 962a 3e3c 91a5 e0bd 1ba1 12bd
00000070: ca67 7dbd 74fd 2e3d b78e 2bbd 15f9 a0bc
0.023338472 -0.15000421 0.012227651 -0.07201679 -0.022462763 -0.12921852 -0.031408977 -0.14148049
0.03671215 0.051349424 -0.08491577 -0.1661114 -0.05937669 0.015907992 -0.08844164 0.017399909
0.033869084 -0.08111976 -0.04736936 -0.03253269 -0.10067869 -0.0029042424 -0.0025542218 -0.066799626
0.03909649 0.011606833 -0.10969079 -0.035798173 -0.06186656 0.04272218 -0.04188415 -0.019650022

model/conv2d/Conv2D f4 [16, 3, 3, 1]
00000000: fb3e 47bf 47cb cf3e 3174 b13e 9378 a4be
00000010: fbb2 c03e 5197 b1bd 242a 643e 9f30 cdbe
00000020: ae15 a93e ae75 ffbe cc90 bbbe 3061 f63e
00000030: d115 ab3c 3d64 953e 5c81 3bbf e75e e6bd
00000040: 900c 223f ad56 dabd 779a 0d3f a889 d53e
00000050: c93b 003e eb50 eabe 9461 29bf 9719 a03e
00000060: c589 e3be 91c9 e53e 25c0 143e 5b54 1dbf
00000070: 3dd9 0abf 5e48 393e d3fc 7abd 24f4 45bf
00000080: 64cc 04be fad6 fd3e 5671 4dbf 80f1 e43e
00000090: 624a 22bf 01f5 22bc a80b b73e 6f4d 033f
000000a0: 93a8 223e f7d4 11bf 5b7f e13d d599 30bf
000000b0: dd6b 3ebf d359 e6be 8058 05bf 2f9c 603e
000000c0: 6b80 903e fb33 d1be 7de8 3bbd 0cd1 323e
000000d0: ce4f 95bd 4342 56bf a515 46be 2bba e1be
000000e0: 2194 05bf defa 253f 3ae4 2b3f 4b7e a0be
000000f0: b2c4 07bf 70c5 333e 7e35 c73e f63e 933d
00000100: bf18 e8bd 3b84 ff3e 97f6 d7bd 0c55 0f3e
00000110: 8b5f aebe 29da 5b3d 69f0 fd3e cc03 65bf
00000120: 1ddf 40be 2ad1 3bbf 5bec 70be 8023 1b3f
00000130: 2343 44bf 5f91 333f bde8 e03e ffdd b23e
00000140: 9766 61be 8ad0 ea3e 9450 e7bc 0076 973e
00000150: f3b6 cfbe 03ed b73e b81a 323c f4af b2be
00000160: acae 48be 510b 11bf bb6a 053e 60bb 22bf
00000170: 99a3 1c3f ed03 ec3d 579f 00bf f927 b13e
00000180: 11ef e73e 14e3 d7be ad3b d53e c6d7 adbe
00000190: ab83 1a3f 6611 9bbe 64c5 2fbe ed2c 63be
000001a0: 0df7 2dbe aff0 b9be f513 713e 9dc8 193e
000001b0: 127b ca3e 24db 28bf bf68 b5bd 69f5 a33e
000001c0: 42d3 c23d 1d1f 273f 18d3 023e edce 5fbe
000001d0: 13af edbe a2e8 6d3d f6ce 2a3f 74de 29bf
000001e0: 20ed a9bd b228 02bf 6072 c0be 61d5 b3bc
000001f0: 72e9 37be 3cff aabd daa1 f63e 4f54 6cbe
00000200: 2d51 d43e b0a4 a0be 64eb 213e d69a fabe
00000210: e863 d63e 2399 ebbe 7fdf e93e d826 343e
00000220: 55be fd3e c244 553e 5c59 dbbe f845 86be
00000230: db95 de3e 9f83 ed3d 03f1 a73e 7f53 683d
-0.77830476 0.40584776 0.3465896 -0.3212324 0.3763655 -0.086714394 0.222817 -0.40076157
0.33024353 -0.4989447 -0.3663391 0.48121023 0.020884426 0.29178038 -0.7324426 -0.1124857
0.6330042 -0.10661063 0.5531382 0.41706586 0.12522806 -0.4576486 -0.6616452 0.31269524
-0.44441047 0.44880345 0.14526422 -0.6145684 -0.5423773 0.18094012 -0.06127627 -0.77325654
-0.12968594 0.49578077 -0.8025106 0.447155 -0.6339475 -0.009946109 0.3575108 0.5129003
0.15884618 -0.56965584 0.11010619 -0.6898473 -0.74383336 -0.44990405 -0.52088165 0.2193458
0.28222975 -0.4085997 -0.045876015 0.17462558 -0.07290612 -0.8369486 -0.19344194 -0.44087347
-0.5217915 0.6483592 0.6714512 -0.31346354 -0.5303451 0.17555785 0.38908 0.07189743
-0.11332845 0.4990557 -0.1054508 0.13997287 -0.34057269 0.05367485 0.4959748 -0.8945892
-0.18835111 -0.73366034 -0.23527662 0.60601044 -0.7666494 0.70143694 0.43927565 0.34934995
-0.22011791 0.45862228 -0.028236665 0.29582214 -0.40569267 0.35923013 0.010870628 -0.34899867
-0.19597882 -0.5665789 0.13028996 -0.6356716 0.6118713 0.11524186 -0.50243133 0.3460081
0.4529958 -0.42165434 0.41647092 -0.33953685 0.6035716 -0.3028671 -0.17165142 -0.22185107
-0.16988774 -0.3631644 0.23542769 0.15017934 0.3954702 -0.6595938 -0.08857869 0.3202317
0.095129505 0.6528185 0.12775838 -0.2185628 -0.46422634 0.058083184 0.6672205 -0.6635506
-0.08297181 -0.50843346 -0.3758726 -0.021952333 -0.17960146 -0.08349463 0.48170358 -0.23079036
0.41468182 -0.31375647 0.1581245 -0.48946255 0.41873097 -0.46015272 0.45678326 0.17592943
0.49559274 0.2082701 -0.42841613 -0.26225257 0.43473706 0.1159737 0.32801065 0.056720253

model/conv2d_1/Conv2D f4 [32, 3, 3, 16]
00000000: 8f46 9b3d ed0e ce3d c5d9 733d 4649 c13d
00000010: 03e7 5b3d e688 b8bd 762f b53d 054a 0b3d
00000020: 8314 fd3a 3299 89bb 1b8c e53d 9620 51bd
00000030: 91eb 5f3d f38d 163d f61f a33d c8b0 b9bc
00000040: 4e59 db3b 4676 a8bc 037f 2cbd 1541 03be
00000050: 8496 043e 8f23 a13d 07e6 5ebd a760 8f3d
00000060: be25 063d 00d2 0dbe 14fb e5bd c32e b53c
00000070: 199f 8abd 3821 443d 2b3b 9ebd b3b8 a63d
00000080: 2031 533c 912b 833d 9403 c0bd cc93 1ebe
00000090: 3c0a a73d 9859 193d 6b63 a03d 02d0 27be
000000a0: 9443 a9bd 5754 a8bc 0fe7 393d c99e e5bd
000000b0: cebf 94bb 95bd 983d e657 4dba 667f 52bd
000000c0: 8ace 21bd e0ce c8bd cfff 8fbd a236 19bd
000000d0: 47f4 cabd 1157 c5bc 30ca b53d d61c 04bd
000000e0: ec36 893d 30cf 653d 027b 9ebd 91b3 93bd
000000f0: f003 8fbd 2735 743e 2d3d f63d daff 51bd
00000100: 9a4b b43d bdfe d03d 21ea 573c 546c 14be
00000110: 618a 85bd 6e89 933d 74a1 bfbc 76c0 0ebd
00000120: c1ed 15bd d28c f23c c367 09bc 71ac 8bbe
00000130: 4d53 bc3d 677f 623d 4ad2 1e3d aee3 fb3c
00000140: 8231 bdb9 34bd 273c 0a2c edbd 6bf6 823d
00000150: bb57 cfbd 8542 9abd d339 933d 6833 d1bc
00000160: 4ebd d2bd ddf7 14be 5015 eb3d 2b25 04be
00000170: bfb0 cdbd fdc6 f0bc 3272 ce3d 8d09 6a3d
00000180: 4e63 153e 94c0 143c 1f5f 853d d3ca 5dbc
00000190: 1dac bc3d 32df 1cbd 4842 edbd dfc9 88bc
000001a0: dfc2 103e 85df bebd ca22 143e 45cc 1bbb
000001b0: eede f53c 607e 52bc 26e5 ecbc 71ff a03d
000001c0: 6504 ecbc 4354 4a3c 6160 4c3c c7d2 54bc
000001d0: 599b a13d 21a8 c4bd f7a9 d63b 4ed6 d3bd
000001e0: 19ab f83c 42f1 7bbc 8669 ddbd 678b 9cbd
000001f0: 3305 f53b 08e9 c7bd cb8e a83d 6afb b23d
00000200: 38be 743d 0c16 93bd 448c a33d 22f4 9bbc
00000210: b2ee 2e3e b34e 26bd a313 d4bc dd12 95bc
00000220: c5d1 d43d 27cf 1b3e 4a06 4dbd 78fb 2d3d
00000230: 957d bc3d 7f65 5bbd fe60 0cbd ad8d c23d
00000240: 6700 d8bc 316d e4bd 04bc bcbd 7066 ecbd
00000250: dda0 983b 0111 d1bd 6948 24bd 693d 853d
00000260: 6122 74bd 23bb 5ebd 00b9 4abd 48c7 8dbc
00000270: 844e 1cbd 33c3 a5bd b0d9 263d 6238 c83d
00000280: 7227 793d 5b82 c93d baa2 8c3d dbdc fcbd
00000290: 46dc 003e d738 713a bde4 e83c 8cda d6bc
000002a0: 1c19 cfbc 170a d03d f6c4 6ebc 5e25 923c
000002b0: cf0f d1bd a3ae c63d 8793 0ebe 243b d0bd
000002c0: 38ac 423d 9310 60bc 7eb7 75bc f963 81bd
000002d0: 68d4 073e 7107 f73b be3d cb3d c217 bdbd
000002e0: 57ea 833d e484 13be bcb5 9ebd 587d babd
000002f0: 1a3d a13d 5b28 ff3d 2cbd 80bd 79ac dbbd
00000300: 4a80 e43c 4c46 b9bd 338f c8bc 29ef acbd
00000310: caee e4bd 9baa f43d 4b3d 873d a01d 11be
00000320: 0cf3 3b3d 2659 313d 1362 fcbd 1e81 3abd
00000330: f623 b5bd c5b8 033d bc44 02be 5365 f5bd
00000340: a881 17be e655 8fbd 1510 89bd 390a cc3c
00000350: fbc5 883c 928c ec3d 9613 06be cd8f cf3d
00000360: 1bb6 d83d f12e c0bd 82e0 5dbe 8653 e23d
00000370: 8227 943c a3e6 463e 6e41 48be e71a 26be
00000380: b917 82bd bc73 1abd 9ccb afbd 6d7f ca3d
00000390: fdfe 443e c303 7c3d 83d0 dd3c 9035 04be
000003a0: 325c d7bd a682 bd3d 145b 843c 7665 babd
000003b0: b7c2 9ebd 1b0c 363e 5ef0 c53d cc1b 49bd
000003c0: 351c b13c f030 913c b848 14be ceb0 b9bd
000003d0: 5a18 ffbd 8642 b4bd 3cef 8a3d 6785 9a3c
000003e0: d1e4 a7bd 6e19 6bbc 3b20 623c 5fce 7f3c
000003f0: c5b8 9a3d 5ef6 23bd 3033 48bd 2757 a1bd
0.07581817 0.100614406 0.059533853 0.09437804 0.053687107 -0.09010486 0.08846943 0.034006137
0.0019308481 -0.0041991705 0.112083636 -0.051056467 0.054668013 0.036756467 0.079650804 -0.022667304
0.0066939956 -0.02056421 -0.042113315 -0.12817796 0.12948042 0.078681104 -0.05441859 0.07000857
0.032750838 -0.1384964 -0.1122953 0.022117024 -0.06768627 0.047883242 -0.07726129 0.08140697
0.01289013 0.06404794 -0.093756825 -0.15486068 0.08156249 0.03743896 0.078314625 -0.16387942
-0.08264843 -0.020548029 0.04538637 -0.112119265 -0.0045394665 0.07458035 -0.0007833227 -0.051391028
-0.03950361 -0.09805083 -0.070312135 -0.037405618 -0.099098735 -0.024089368 0.08876455 -0.032254063
0.06699929 0.056105793 -0.07738306 -0.07211984 -0.06983173 0.23848401 0.12023387 -0.05126939
0.08803482 0.102048375 0.013178379 -0.14494449 -0.06520534 0.07203947 -0.023392417 -0.034851514
-0.036603693 0.029608164 -0.008386555 -0.2728 0.09195576 0.05529728 0.038774766 0.030748215
-0.00036085775 0.010237981 -0.115806654 0.06394657 -0.10124155 -0.07532219 0.071887635 -0.025537208
-0.10290013 -0.14547677 0.114786744 -0.12904803 -0.10043477 -0.02939176 0.10080375 0.057138015
0.14588663 0.009079117 0.065122835 -0.013537127 0.092125155 -0.038298793 -0.11584908 -0.016697822
0.14136837 -0.09319977 0.14466396 -0.0023772877 0.030013528 -0.012847513 -0.02891786 0.078612216
-0.02881069 0.012349191 0.01247415 -0.012989706 0.07890958 -0.096023805 0.006551023 -0.1034361
0.030355023 -0.015377345 -0.108111426 -0.076437764 0.0074774264 -0.09761244 0.082303606 0.0873936
0.05975172 -0.071819395 0.07985738 -0.01903731 0.17083243 -0.040602397 -0.02588827 -0.018197471
0.10391573 0.15215741 -0.050054826 0.042476147 0.0920364 -0.05356359 -0.034272186 0.09499679
-0.02636738 -0.11153639 -0.09215549 -0.11542976 0.0046578483 -0.10208321 -0.04010812 0.06505854
-0.0596031 -0.054377686 -0.049492836 -0.017306939 -0.038160816 -0.08093872 0.040734947 0.09776379
0.060828634 0.098393165 0.06866975 -0.12346812 0.12584028 0.000920189 0.028429383 -0.026227258
-0.025280528 0.101581745 -0.014573326 0.017840084 -0.102080934 0.09701278 -0.13923465 -0.1016753
0.04752752 -0.013675827 -0.014997361 -0.063178964 0.1326462 0.007538729 0.09923886 -0.09233047
0.06441181 -0.14406163 -0.07749507 -0.09105939 0.07872982 0.12458869 -0.06286082 -0.10726256
0.027893204 -0.09046611 -0.024482345 -0.08444054 -0.11178358 0.11946603 0.066034876 -0.14171457
0.045886084 0.04329791 -0.12323394 -0.045533292 -0.0884475 0.03215863 -0.12721533 -0.11982217
-0.14795554 -0.06998806 -0.066925205 0.024907218 0.016695967 0.11550249 -0.13093409 0.1013485
0.10581609 -0.09383953 -0.21667674 0.11051087 0.018085245 0.19423918 -0.1955621 -0.162212
-0.06352181 -0.03770803 -0.08583757 0.09887586 0.19237895 0.061527025 0.027076965 -0.12911057
-0.10515632 0.09253435 0.01615671 -0.091013834 -0.07751983 0.17778055 0.09664987 -0.049098775
0.021619895 0.01772353 -0.14480865 -0.09066926 -0.124558166 -0.08801751 0.067839116 0.01886244
-0.0819794 -0.014349325 0.01380163 0.015613168 0.07554773 -0.040029876 -0.04887694 -0.07877951

model/dense/BiasAdd/ReadVariableOp f4 [64]
00000000: fc03 91bc 9759 59bd f47e 99bc 0eda aabc
00000010: 0e39 6cbc 352a 4cbd d2d4 b0bc 8f19 9bbc
00000020: 68fc 85bc b751 9fbc 99db 8abc 4953 aebc
00000030: f76e 95bc ca3f 9cbc 3829 63bc 3ccb 64bc
00000040: b35c c7bc 85b9 c1bc bfbf 8bbc b1cb a1bc
00000050: 9761 b7bc d429 8cbc 9144 c9bc 8e8b c6bc
00000060: bcfb b6bc 9a05 9fbc 10cf babc 03d6 89bc
00000070: 95a1 c3bc 1a8b 83bc a88a 9abc bc5c 9ebc
00000080: 13b0 d6bc 24bc f4bc 8ad1 b4bc e51d b3bc
00000090: 3e0d 99bc 31e7 b9bc a84d 9ebc c397 a2bc
000000a0: c582 b4bc d2ef 5bbd 446f acbc 7038 cdbc
000000b0: 0998 81bc 0c18 8ebc 108e c2bc e4dd 8cbc
000000c0: 882d e5bc 1786 98bc 7b8a 95bc 22d5 8dbc
000000d0: cce5 a6bc 14d9 bbbc cd62 8ebc 9d61 a4bc
000000e0: 17c7 d3bc b8cd bcbc 4665 adbc aaeb 8abc
000000f0: 1aeb b9bc 9763 a4bc cc0f 18bd 8602 a3bc
-0.017702095 -0.053063955 -0.018737294 -0.02085593 -0.0144179 -0.04984494 -0.021585856 -0.018933086
-0.016355708 -0.019448144 -0.016950415 -0.021279948 -0.018241389 -0.019073386 -0.013864808 -0.0139644705
-0.024336195 -0.023648033 -0.017059205 -0.019750448 -0.022385402 -0.017109789 -0.024568828 -0.024236467
-0.022336833 -0.01941185 -0.022803813 -0.016825682 -0.02388076 -0.01605754 -0.018864945 -0.019331329
-0.026207006 -0.029874869 -0.022072572 -0.02186484 -0.018683072 -0.022693248 -0.019324139 -0.019847756
-0.022035012 -0.053695507 -0.02104915 -0.025051326 -0.015819566 -0.01734545 -0.023749381 -0.01719565
-0.027975813 -0.018618627 -0.01825451 -0.017313544 -0.020373248 -0.02293066 -0.017381096 -0.020066077
-0.02585177 -0.023047313 -0.021166455 -0.016958077 -0.022695113 -0.02006702 -0.03712444 -0.019898664

model/dense_1/BiasAdd/ReadVariableOp f4 [36]
00000000: c4a7 073d ecb5 2fc0 7fc0 2c3d 77d1 293d
00000010: b66b 323d 9806 133d 6c65 233d 91e2 8fbf
00000020: 3b90 0f3d 0733 2d3d 2df8 2c3d 976c 133d
00000030: 88da 893c 585c 203d 3ce3 053d 1196 14c0
00000040: 19b1 1d3d 5ce8 243d 5105 0c3d 33d5 6f3c
00000050: e23b e63c d50e 37c0 00eb 003d bcdb 193d
00000060: 3bd1 233d 98c5 3ebf 71e1 403d a6ec 133d
00000070: c341 2a3d f0b1 50c0 37aa 233d 1c0a 163d
00000080: 21fd 0c3d 34ad 143d 351d 7cbf fb95 1f3d
0.03311898 -2.7454786 0.042175766 0.041459527 0.043559752 0.03589496 0.039891645 -1.1241018
0.03504966 0.04228499 0.042228866 0.03599223 0.016827837 0.039150566 0.03268741 -2.3216593
0.03849897 0.040260658 0.034184758 0.014638233 0.028104726 -2.8602803 0.031474113 0.03756307
0.03999446 -0.74520254 0.047089998 0.036114357 0.04156662 -3.2608604 0.03995725 0.036630735
0.03442109 0.036297992 -0.98482066 0.038961392

model/dense/MatMul f4 [64, 800]
00000000: 025e 20bc 255a 3d3c 0261 8b3d 26fa dc3c
00000010: a4da f93b b3c9 ebbc bd98 cebc b7d6 dfbc
00000020: 5ff9 2a3c 0919 433d d87d edbc afbc 5cbd
00000030: b893 6a3d ee42 37bd f6d7 abbd 43dc bfbd
00000040: 2056 663d 1d1b 943c 83a3 5dbc 2248 073a
00000050: f9d7 aebd 3d8a 86bd 8093 86bd ec10 bbbb
00000060: aa8e 0bbd b38a e63c 1345 dcbb 9537 07bd
00000070: 6afc d3ba dcc2 90bd f7e6 bebc 5cfb 10bd
00000080: a637 fe3b b7f3 18bd a19c 743d 2c6d 2dbc
00000090: 2901 c5bc 8497 adbc e309 fdbc 26e2 61bd
000000a0: e333 38bd a108 04bc f5ef f9bc 6eea 4fbc
000000b0: 544e e0bc 3591 3a3d ed1e 9ebd 4347 1a3d
000000c0: 9149 823d 9b1f bb3c 7d1a 5c3c e4f5 99bd
000000d0: a587 4c3c cead fb3c 4519 e1bc 7fa5 163d
000000e0: 0dc1 593d ae6f 5bbd 7bb3 b4bc 2cf2 fd3c
000000f0: e745 94bc 7d41 ad3b e6e9 5bbd b07a 733d
00000100: ffa2 7e3c 72c0 753c e305 003d 8c00 ca3c
00000110: aab6 87bd 8118 35bc 68d4 87bd bc0e 8cbd
00000120: d7e3 8e3b 6bd4 80bd 6156 16bd ab72 03bd
00000130: aa5a 06bc 5a00 253b 1ae8 5bbd 0e24 8abd
00000140: ffdd acbd 7986 243d 450e a6bc 7248 d43c
00000150: 56cf 0c3d f8a4 9abd 2b51 2c3d c056 3a3d
00000160: 55b2 25ba 83e9 17bb 954a aebd 1a45 2cbd
00000170: 0282 28bd d98d f6bc 7298 83bd e996 143d
00000180: 981a 863d eb02 743d 7e1e 54bd 1e60 d6bc
00000190: f3ba 14bd befd 12bd 0746 92bd 7312 f03c
000001a0: 5a31 80bd dec7 293d ad30 ee3c 20ad 2cbd
000001b0: beb7 aebd 88ff 91bd 6605 bbbd d2d0 093d
000001c0: f75e e73c d26d 92bd 35e4 1cbd 490d b4bc
000001d0: fedd 853d 31e6 5d3d c220 453d b480 a43c
000001e0: 1009 bcbd fe18 58bd fd24 94bd f046 d83c
000001f0: a1f5 83bd f004 99bd c15d b0bb 6183 04ba
00000200: ce5a b8bd 3a27 163d 017a a8bd 0b95 4f3d
00000210: be0b 63bd e3d3 87bd 81f5 dd3c 9341 74bd
00000220: 32be 97bd b21d e0bc ce7a 81ba 7c16 873d
00000230: ba91 68bd 009a 203d de31 813d e966 5cbd
00000240: 710f 5fbd d0e6 0dbd 3145 663d 7bb0 563d
00000250: f886 7d3d 73cf 0bbd 54ab 913d e847 ec3c
00000260: 9af7 b9bd 9dd7 e33a cfa3 683d d9aa 7cbd
00000270: 3341 8d3d 5859 46bc 7a2e 8ebd 68a9 35bd
00000280: 7092 70bd 3086 02bd f357 b63c c38f 5b3d
00000290: 8456 863d 242f a03c daf1 2b3d d4a1 17bc
000002a0: 3048 a0bd e5a3 19bd 0360 2a3d d5c4 833a
000002b0: 39d4 783c 5a5c f63c 5352 2fbc 877f 563d
000002c0: 6ad3 7f3c 50e3 183d 7a1d cabb 4f02 b4bd
000002d0: 081a 9fbd 2dc5 8ebd 3f43 9d3d 6e8b 55bd
000002e0: e737 cdbc 6d83 2d3d d729 ebbc 07be 2c3b
000002f0: d28f 3d3d 8283 75bb 63e4 e73c 3599 9bbd
00000300: d270 053c 61b7 6f3c 8bdf 30bc 0b48 18bd
00000310: 6240 9ebc 08b5 a1bd 3d3e 9a3d 3ab2 9bbd
00000320: 24aa 9bbc cbff 763d 3e3e b6bc 8a82 aebd
00000330: 5c07 4f3d f719 893d 1983 0bbb dd23 c1bd
00000340: 66c7 3e3d f03a d83c ffc4 aabd acae bcbd
00000350: c5ed 9ebd 6e88 73bd 1ee1 a8bd a3aa 63bd
00000360: 83ac 98bd d3f0 283b 5b4f 54bd 5c36 623d
00000370: eed7 423d a6c9 bebc 95b5 093b 1756 1abd
00000380: 6504 14bd dfa7 15bd 761f 80bd 41c1 98bd
00000390: 8b7f b5bc c5e1 013d 4841 3c3d 663b 6d3d
000003a0: 58fc 53bd f763 e63c f161 1d3d 6fcc a9bc
000003b0: 75a0 47bd b0bd 34bc 4b8e b43c 6672 6d3c
000003c0: 4038 6bbc 3a41 513d bab1 95bd 815d d63b
000003d0: d359 7e3d 3a54 9d3d 5be2 7b3d a272 eb3c
000003e0: b39b 43bd ba31 a3bd 4d0f dd3c b293 21bd
000003f0: 9ef2 db3b f273 d23c a3bb a2bb 35e3 39bd
-0.009788038 0.011557137 0.06805612 0.026974749 0.007624941 -0.028782701 -0.025219316 -0.027324064
0.010435431 0.047631297 -0.028990671 -0.05389088 0.05726978 -0.044741563 -0.08390801 -0.093681835
0.05623448 0.018079335 -0.013527754 0.000516059 -0.08537287 -0.065693356 -0.06571102 -0.0057088044
-0.034071602 0.028142309 -0.0067221015 -0.03301199 -0.0016173248 -0.070684165 -0.023303492 -0.035395965
0.0077580987 -0.0373418 0.059719685 -0.010585111 -0.024048405 -0.021190412 -0.030888503 -0.055147313
-0.044971358 -0.008058698 -0.030509928 -0.01269017 -0.0273811 0.045548636 -0.077207424 0.037665617
0.06361688 0.02284222 0.01343405 -0.07517603 0.012483512 0.030722525 -0.02747787 0.036778923
0.053162623 -0.053573303 -0.02205824 0.030999266 -0.018099738 0.005287348 -0.05368986 0.059443176
0.015541791 0.014999496 0.031255614 0.024658464 -0.06626637 -0.0110532055 -0.0663231 -0.06838748
0.0043606567 -0.062905155 -0.03670347 -0.032091778 -0.008200327 0.0025177212 -0.053688146 -0.06745158
-0.0844078 0.040167306 -0.020270476 0.02591345 0.03437742 -0.075509965 0.042069595 0.045492887
-0.0006320824 -0.0023179955 -0.08510319 -0.042058088 -0.04113961 -0.030096935 -0.06425561 0.03627673
0.06548041 0.059573095 -0.051786892 -0.02616888 -0.0363111 -0.03588652 -0.07142263 0.029305672
-0.06259413 0.041450374 0.029075945 -0.042157292 -0.0853114 -0.07128817 -0.09131889 0.033646412
0.028243525 -0.07149853 -0.038303573 -0.021978991 0.06536482 0.054174606 0.048126943 0.020080902
-0.09181416 -0.05275821 -0.072336175 0.026401013 -0.06443334 -0.07471645 -0.00538227 -0.00050549774
-0.090016946 0.036658503 -0.082263954 0.050679248 -0.05543112 -0.06632211 0.027094604 -0.05963285
-0.07409324 -0.02735791 -0.0009878518 0.065960854 -0.0567796 0.039209366 0.063083395 -0.05380908
-0.054458085 -0.034643948 0.05621833 0.0524144 0.061896294 -0.034133386 0.07112756 0.028842881
-0.090804294 0.0017382983 0.056796845 -0.06168637 0.068972014 -0.012106262 -0.069424585 -0.04435101
-0.058733404 -0.031866252 0.022258734 0.0536039 0.0655947 0.019553728 0.041978694 -0.009254891
-0.07826269 -0.037509818 0.04159547 0.0010053167 0.015187317 0.030073334 -0.01070078 0.052367713
0.01561437 0.037326157 -0.0061680647 -0.08789503 -0.07768637 -0.06971202 0.07678842 -0.052134924
-0.02505107 0.042361666 -0.028706474 0.0026358382 0.046279736 -0.0037462418 0.028307145 -0.07597581
0.008144574 0.014631123 -0.010795484 -0.03717808 -0.01931781 -0.07895857 0.07531402 -0.076023534
-0.019002028 0.060302537 -0.022246476 -0.08520992 0.050544128 0.066944055 -0.0021287857 -0.094306685
0.04657688 0.026395291 -0.08338355 -0.092130035 -0.07760195 -0.05945628 -0.08246063 -0.055582654
-0.07454779 0.0025778308 -0.05183349 0.055227622 0.047569208 -0.023289513 0.0021012772 -0.037679758
-0.036137003 -0.036537047 -0.06256001 -0.07458735 -0.022155544 0.03170945 0.045960695 0.057917975
-0.051754326 0.028123839 0.038423482 -0.020727364 -0.048737008 -0.011031553 0.022040507 0.014492607
-0.014356673 0.051087596 -0.07309289 0.0065419083 0.06209738 0.076820806 0.061495166 0.028741185
-0.04775591 -0.07968469 0.026984835 -0.039447494 0.006712272 0.025690053 -0.0049662157 -0.045382697

model/dense_1/MatMul f4 [36, 64]
00000000: 5993 1d3e c629 a0bf d228 44be 5ec0 9cbc
00000010: 12c2 10bd 34b6 67bf c743 61be d858 683e
00000020: f477 f2bd 199d 6abd fe69 663e 8344 003e
00000030: 4308 f13d b0b1 2e3e 215e 09be d404 c43d
00000040: f5a0 f3bd cc82 4dbd 693c 383e 2335 4d3e
00000050: 8866 37bd 7620 72be d845 de3c fb37 93bd
00000060: abab 10be 08f7 c63c e0e1 3a3e 664a 873d
00000070: ab78 5c3e ba41 473e 4863 573e 85e6 7ebe
00000080: e30b 52bd 0e78 b23d 0169 1f3e 8e74 603d
00000090: 6438 393d 50d9 f1bd 53f6 c1bd b0cf e5bd
000000a0: e7cd 4b3d 0fab dbbf eb2b 5bbd 1a4e 6f3c
000000b0: 2261 6cbe e638 1d3e 4220 dc3b abc1 52bd
000000c0: 78da 0e3e b5d3 953d c74f 0d3e fb1c 7cbd
000000d0: a2f1 38be b8db 6cbd 7b28 543e 3d78 4cbd
000000e0: 8f55 0bbe c8d2 8c3b 8b68 d2bd d835 71be
000000f0: 3cfb a13d 257c 17be 7fdc 8abf a1b3 27be
00000100: a335 e5bc 9081 0fbf 34a8 b9bb 3e1f 1ebe
00000110: c2e1 623e 0979 3abf a23b 943d 228f 2abe
00000120: 8c52 19be 84e0 2c3e 72dd 69bd 0e74 583e
00000130: 3311 0e3e bd33 ca3c b89b 40bd c6dd 3f3e
00000140: 85f8 11bd a734 11be 2227 24bc 1e6a 16bc
00000150: c93f 843d 18ad 593e 1277 e8bd f1fa 063d
00000160: c684 fe3d 3b0f 56be 51ff 5d3e f10c 14be
00000170: a683 4bbe f708 b03d 1697 2a3e 66db 353e
00000180: d806 9abd 4bd8 2b3e 22b2 083d ec99 6dbe
00000190: 3e51 26be c2c7 19be b4cc 2b3c 0559 c5bd
000001a0: 4dca 2e3d 9c54 eabe 0b1e d8bc aa51 3abc
000001b0: 468c 2c3e 8ecd 33be 1d4e 80bc ea29 c93d
000001c0: 67ae b13d faeb 583d a203 5a3c e2e6 933c
000001d0: 6b31 36be 4990 47be 3369 133e 2d87 063e
000001e0: 9111 033e 5d0d 4fbe 2e2f 0f3e e21f abbd
000001f0: cf3b 313e 1b38 6cbe a6ff 19be 9f08 603e
00000200: eacf bfbd 9e24 5dbf 0f61 7bbe dd93 663e
00000210: c64b 3fbd 5ae6 5fbf 4fdc 4c3e d79b 1bbe
00000220: 3b03 d33d 54d3 42bd ea34 673e 78d5 01be
00000230: a99b c3bd d302 553e 08e5 503e bd07 30bc
00000240: 13e2 233e cb1b 0a3e 993e 683d a34c 58bd
00000250: 4cbb 493e e43d 5c3e a9d6 0d3d 6d12 11be
00000260: 53a8 043d ca47 c33d 5b22 a93c 4245 48be
00000270: a29f 0bbe 23c2 023e b3e5 ce3d 3a4f fb3a
00000280: f3eb 28be 8ee0 44bd 7c27 50be ea1b 06be
00000290: 44b6 48be e7fc a4bd bfaa 083e 9f17 173e
000002a0: b631 49bd 1643 a9bf 1655 583e 280d 823d
000002b0: 6969 c7bd 066c 643e 5887 f13d 94b2 d33d
000002c0: 3b30 383e ff36 6ebd 5bd6 33be a8ad 50bd
000002d0: ba5a 523e 7825 ea3c 19e6 08be dda1 1fbe
000002e0: d0ff dd3d 6d40 053d 26df 4abd ee75 193e
000002f0: 3196 3abe 2625 063e 0880 7dbf 98dc 69be
00000300: fd67 7dbd 3ee9 a2bf 49c0 15be 3f24 273e
00000310: c241 5c3e 3acc 57bf c07a f9bd 5cf2 01bd
00000320: 121a 503e eebc 92bd b97e 493e d4b4 8fbd
00000330: fe15 34be 8911 563e 51d7 6b3c 07bc 2cbc
00000340: 2a90 2dbe 98c1 52be 24b7 51be 1297 763d
00000350: 725f 563e 027a 60be a6b6 613e 0cbb b9b8
00000360: f57c 9e3d 5dee 383d a5ef 23bd 9941 68bc
00000370: 4db4 bbbd f8a5 49be be5b 30bd 0afc b6bd
00000380: 9659 b6bc 5a65 12bd 516b 933c ff0e 023e
00000390: 970e 8c3d 3bc9 5b3e 99be 37be adaf 4a3e
000003a0: 04e4 5cbc 393c a7bf f6c8 2c3d 66b5 d13d
000003b0: 1dc3 37bb ccf7 e23c 9185 f63d 1459 adbd
000003c0: 32fb 17bc 862b 103e 246d bfbc 7d15 1f3d
000003d0: adb3 78be 272e d3bc a855 5ebe 00ef 2cbd
000003e0: 2916 423e 8966 483e 2f51 75bd 039b f3bb
000003f0: 3261 ed3c 8fe7 aebc e360 82bf c7e1 27bd
0.1538824 -1.2512748 -0.19156197 -0.019134697 -0.03534133 -0.90512395 -0.21998511 0.22690141
-0.118392855 -0.057278726 0.2250137 0.12526135 0.11769154 0.1705997 -0.13414814 0.095712334
-0.118959345 -0.050173566 0.17991795 0.20039801 -0.044775516 -0.23645195 0.027132913 -0.07188412
-0.14127986 0.024287716 0.18250227 0.06605987 0.21530406 0.19458666 0.21033967 -0.24892624
-0.051280867 0.08714305 0.155674 0.054798655 0.045219794 -0.11809027 -0.09470811 -0.11221254
0.04975691 -1.7161578 -0.05350868 0.014606023 -0.23083928 0.15353736 0.0067177126 -0.051454227
0.13950527 0.073157705 0.13799964 -0.061551075 -0.18060926 -0.057826728 0.20718567 -0.049919356
-0.13606857 0.004297588 -0.10273846 -0.23555696 0.07909247 -0.14793451 -1.084854 -0.16377117
-0.027979678 -0.5605707 -0.0056658033 -0.15441605 0.22156432 -0.72840935 0.072379366 -0.16656163
-0.14972895 0.16882521 -0.057095952 0.21138021 0.13873748 0.024682874 -0.047023505 0.18736944
-0.035637397 -0.14180242 -0.010019096 -0.009180574 0.064574786 0.21257436 -0.11350836 0.03295416
0.12427668 -0.20904247 0.21679427 -0.14458062 -0.19874439 0.0859546 0.16659197 0.17759475
-0.075208366 0.16781728 0.033373006 -0.23203248 -0.16241929 -0.15017608 0.010485817 -0.0963612
0.042673398 -0.45767677 -0.026381513 -0.011372009 0.16850385 -0.17558882 -0.015662247 0.098224476
0.08675843 0.05295942 0.01330653 0.01805443 -0.17792289 -0.19488634 0.14395599 0.13137503
0.1279967 -0.20219941 0.13982841 -0.083556905 0.17307971 -0.23068278 -0.15038928 0.21878289
-0.09365828 -0.86384 -0.24548744 0.22517343 -0.046703123 -0.87460864 0.20005916 -0.15196167
0.103033505 -0.04756482 0.22578779 -0.12679088 -0.09551174 0.20801859 0.20399868 -0.010744032
0.16004209 0.13487165 0.056700323 -0.05280746 0.19700354 0.21507984 0.034628544 -0.14167185
0.03238709 0.09535177 0.020646265 -0.1955767 -0.13635114 0.1276937 0.101024054 0.0019173392
-0.16496257 -0.048065715 -0.20327562 -0.13096586 -0.19600779 -0.0805605 0.13346384 0.14755104
-0.049119674 -1.3223598 0.21126208 0.063501656 -0.09736902 0.22306833 0.11793393 0.103367954
0.17987148 -0.058157917 -0.17562239 -0.05094686 0.20542422 0.02858232 -0.13369025 -0.1558909
0.10839808 0.032532144 -0.049529217 0.14986393 -0.18221356 0.13100109 -0.99023485 -0.22838056
-0.06186675 -1.272743 -0.14624132 0.1632242 0.2150946 -0.84296 -0.12181616 -0.031725273
0.20322445 -0.07164942 0.19677247 -0.07016912 -0.17586514 0.20905127 0.014394597 -0.010542876
-0.16949525 -0.20581663 -0.20480019 0.060202666 0.20934847 -0.21921542 0.22042331 -8.8563276e-05
0.077386774 0.045149196 -0.040023465 -0.014175796 -0.09165249 -0.19692218 -0.043056242 -0.089347914
-0.022259515 -0.035741188 0.017995508 0.12701033 0.0683872 0.21463482 -0.17943801 0.19793577
-0.013482098 -1.3065253 0.04218384 0.10239677 -0.002803988 0.02770605 0.120371945 -0.08464256
-0.009276198 0.14079103 -0.023367472 0.038838852 -0.24287291 -0.025778843 -0.21712363 -0.042220116
0.18953766 0.19570364 -0.059891876 -0.0074342503 0.02897701 -0.02135065 -1.0185817 -0.040986802
